…
------------------------------------------------------------------------------------------------------------------------------------------------------------------------------------------------------------------------------
NO. LAYER   TYPE        INPUT SHAPE             EXTRA INFO  ACTIVATION    OUTPUT SHAPE          DO FORWARD IMPL       DO BACKWARD IMPL      DO BACKWARD OUTPUT IMPL   L1 PENALTIES        L2 PENALTIES        PARAMS          
------------------------------------------------------------------------------------------------------------------------------------------------------------------------------------------------------------------------------
0   c0      Conv2D      (None, 64, 64, 1)       5x5         relu          (None, 64, 64, 8)     numba_cuda_tiles      numba_cuda_direct     numba_cuda_tiles                                                  208             
1   c1      Conv2D      (None, 64, 64, 8)       5x5         relu          (None, 64, 64, 8)     numba_cuda_tiles      numba_cuda_direct     numba_cuda_tiles                                                  1608            
2   m2      MaxPool2D   (None, 64, 64, 8)       2x2                       (None, 32, 32, 8)     numba_cuda_direct                           numba_cuda_direct                                                 0               
3   dr3     Dropout     (None, 32, 32, 8)       0.25                      (None, 32, 32, 8)                                                                                                                   0               
4   c4      Conv2D      (None, 32, 32, 8)       3x3         relu          (None, 32, 32, 16)    numba_cuda_direct     numba_cuda_direct     numba_cuda_tiles                                                  1168            
5   c5      Conv2D      (None, 32, 32, 16)      3x3         relu          (None, 32, 32, 16)    numba_cuda_direct     numba_cuda_direct     numba_cuda_tiles                                                  2320            
6   m6      MaxPool2D   (None, 32, 32, 16)      2x2                       (None, 16, 16, 16)    numba_cuda_direct                           numba_cuda_direct                                                 0               
7   dr7     Dropout     (None, 16, 16, 16)      0.25                      (None, 16, 16, 16)                                                                                                                  0               
8   f8      Flatten     (None, 16, 16, 16)                                (None, 4096)                                                                                                                        0               
9   d9      Dense       (None, 4096)                        relu          (None, 64)            numpy                 numpy                 numpy                                                             262208          
10  dr10    Dropout     (None, 64)              0.25                      (None, 64)                                                                                                                          0               
11  d11     Dense       (None, 64)                          softmax       (None, 40)            numpy                 numpy                 numpy                                                             2600            
------------------------------------------------------------------------------------------------------------------------------------------------------------------------------------------------------------------------------
…
DO PICKLE... [to: ./hmdl_clfs/grid_a100-7-40c_mig_7g_40gb/2185109709_hmdl_clf.bin]
DO PICKLE DONE. [time: 0.11062932014465332 s]

HMDL CLF ACC AND LOSS... [after fit]
[train acc: 1.0, train loss: 6.29354253760539e-05]
[test acc: 0.9166666666666666, test loss: 0.5533556342124939]
HMDL CLF ACC AND LOSS DONE. [time: 0.21120381355285645 s]


KERAS MODEL SUMMARY:
Model: "sequential"
_________________________________________________________________
 Layer (type)                Output Shape              Param #   
=================================================================
 c0 (Conv2D)                 (None, 64, 64, 8)         208       
                                                                 
 c1 (Conv2D)                 (None, 64, 64, 8)         1608      
                                                                 
 m2 (MaxPooling2D)           (None, 32, 32, 8)         0         
                                                                 
 dr3 (Dropout)               (None, 32, 32, 8)         0         
                                                                 
 c4 (Conv2D)                 (None, 32, 32, 16)        1168      
                                                                 
 c5 (Conv2D)                 (None, 32, 32, 16)        2320      
                                                                 
 m6 (MaxPooling2D)           (None, 16, 16, 16)        0         
                                                                 
 dr7 (Dropout)               (None, 16, 16, 16)        0         
                                                                 
 f8 (Flatten)                (None, 4096)              0         
                                                                 
 d9 (Dense)                  (None, 64)                262208    
                                                                 
 dr10 (Dropout)              (None, 64)                0         
                                                                 
 d11 (Dense)                 (None, 40)                2600      
                                                                 
=================================================================
Total params: 270,112
Trainable params: 270,112
Non-trainable params: 0
_________________________________________________________________

KERAS CLF ACC AND LOSS... [before fit]
1/9 [==>...........................] - ETA: 13s - loss: 3.7259 - accuracy: 0.03129/9 [==============================] - 2s 4ms/step - loss: 3.7395 - accuracy: 0.0214
…
