…
------------------------------------------------------------------------------------------------------------------------------------------------------------------------------------------------------------------------------
NO. LAYER   TYPE        INPUT SHAPE             EXTRA INFO  ACTIVATION    OUTPUT SHAPE          DO FORWARD IMPL       DO BACKWARD IMPL      DO BACKWARD OUTPUT IMPL   L1 PENALTIES        L2 PENALTIES        PARAMS          
------------------------------------------------------------------------------------------------------------------------------------------------------------------------------------------------------------------------------
0   c0      Conv2D      (None, 32, 32, 3)       7x7         relu          (None, 32, 32, 32)    numba_cuda_tiles      numba_cuda_direct     numba_cuda_tiles                                                  4736            
1   c1      Conv2D      (None, 32, 32, 32)      5x5         relu          (None, 32, 32, 32)    numba_cuda_direct     numba_cuda_direct     numba_cuda_tiles                                                  25632           
2   m2      MaxPool2D   (None, 32, 32, 32)      2x2                       (None, 16, 16, 32)    numba_cuda_direct                           numba_cuda_direct                                                 0               
3   dr3     Dropout     (None, 16, 16, 32)      0.125                     (None, 16, 16, 32)                                                                                                                  0               
4   c4      Conv2D      (None, 16, 16, 32)      3x3         relu          (None, 16, 16, 64)    numba_cuda_direct     numba_cuda_direct     numba_cuda_direct                                                 18496           
5   c5      Conv2D      (None, 16, 16, 64)      3x3         relu          (None, 16, 16, 64)    numba_cuda_direct     numba_cuda_direct     numba_cuda_direct                                                 36928           
6   m6      MaxPool2D   (None, 16, 16, 64)      2x2                       (None, 8, 8, 64)      numba_cuda_direct                           numba_cuda_direct                                                 0               
7   dr7     Dropout     (None, 8, 8, 64)        0.25                      (None, 8, 8, 64)                                                                                                                    0               
8   f8      Flatten     (None, 8, 8, 64)                                  (None, 4096)                                                                                                                        0               
9   d9      Dense       (None, 4096)                        relu          (None, 128)           numpy                 numpy                 numpy                                                             524416          
10  dr10    Dropout     (None, 128)             0.5                       (None, 128)                                                                                                                         0               
11  d11     Dense       (None, 128)                         softmax       (None, 10)            numpy                 numpy                 numpy                                                             1290            
------------------------------------------------------------------------------------------------------------------------------------------------------------------------------------------------------------------------------
…
HMDL FIT DONE. [time: 7042.975492477417 s]
DO PICKLE... [to: ./hmdl_clfs/grid_a100-7-40c_mig_7g_40gb/3392187021_hmdl_clf.bin]
DO PICKLE DONE. [time: 0.2500874996185303 s]

HMDL CLF ACC AND LOSS... [after fit]
[train acc: 0.97892, train loss: 0.10179363936185837]
[test acc: 0.7741, test loss: 0.7779259085655212]
HMDL CLF ACC AND LOSS DONE. [time: 24.175843477249146 s]


KERAS MODEL SUMMARY:
Model: "sequential"
_________________________________________________________________
 Layer (type)                Output Shape              Param #   
=================================================================
 c0 (Conv2D)                 (None, 32, 32, 32)        4736      
                                                                 
 c1 (Conv2D)                 (None, 32, 32, 32)        25632     
                                                                 
 m2 (MaxPooling2D)           (None, 16, 16, 32)        0         
                                                                 
 dr3 (Dropout)               (None, 16, 16, 32)        0         
                                                                 
 c4 (Conv2D)                 (None, 16, 16, 64)        18496     
                                                                 
 c5 (Conv2D)                 (None, 16, 16, 64)        36928     
                                                                 
 m6 (MaxPooling2D)           (None, 8, 8, 64)          0         
                                                                 
 dr7 (Dropout)               (None, 8, 8, 64)          0         
                                                                 
 f8 (Flatten)                (None, 4096)              0         
                                                                 
 d9 (Dense)                  (None, 128)               524416    
                                                                 
 dr10 (Dropout)              (None, 128)               0         
                                                                 
 d11 (Dense)                 (None, 10)                1290      
                                                                 
=================================================================
Total params: 611,498
Trainable params: 611,498
Non-trainable params: 0
_________________________________________________________________

KERAS CLF ACC AND LOSS... [before fit]
   1/1563 [..............................] - ETA: 50:27 - loss: 2.7249 - accuracy:
…
