…
------------------------------------------------------------------------------------------------------------------------------------------------------------------------------------------------------------------------------
NO. LAYER   TYPE        INPUT SHAPE             EXTRA INFO  ACTIVATION    OUTPUT SHAPE          DO FORWARD IMPL       DO BACKWARD IMPL      DO BACKWARD OUTPUT IMPL   L1 PENALTIES        L2 PENALTIES        PARAMS          
------------------------------------------------------------------------------------------------------------------------------------------------------------------------------------------------------------------------------
0   c0      Conv2D      (None, 28, 28, 1)       5x5         relu          (None, 28, 28, 64)    numba_cuda_tiles      numba_cuda_direct     numba_cuda_direct                                                 1664            
1   m1      MaxPool2D   (None, 28, 28, 64)      2x2                       (None, 14, 14, 64)    numba_cuda_direct                           numba_cuda_direct                                                 0               
2   dr2     Dropout     (None, 14, 14, 64)      0.125                     (None, 14, 14, 64)                                                                                                                  0               
3   c3      Conv2D      (None, 14, 14, 64)      3x3         relu          (None, 14, 14, 128)   numba_cuda_direct     numba_cuda_direct     numba_cuda_direct                                                 73856           
4   m4      MaxPool2D   (None, 14, 14, 128)     2x2                       (None, 7, 7, 128)     numba_cuda_direct                           numba_cuda_direct                                                 0               
5   dr5     Dropout     (None, 7, 7, 128)       0.125                     (None, 7, 7, 128)                                                                                                                   0               
6   f6      Flatten     (None, 7, 7, 128)                                 (None, 6272)                                                                                                                        0               
7   d7      Dense       (None, 6272)                        relu          (None, 128)           numpy                 numpy                 numpy                                                             802944          
8   dr8     Dropout     (None, 128)             0.125                     (None, 128)                                                                                                                         0               
9   d9      Dense       (None, 128)                         softmax       (None, 10)            numpy                 numpy                 numpy                                                             1290            
------------------------------------------------------------------------------------------------------------------------------------------------------------------------------------------------------------------------------
…
HMDL FIT DONE. [time: 27839.770416736603 s]
DO PICKLE... [to: ./hmdl_clfs/quadro_m4000m/0549589385_hmdl_clf.bin]
DO PICKLE DONE. [time: 0.45892810821533203 s]

HMDL CLF ACC AND LOSS... [after fit]
[train acc: 0.99985, train loss: 0.001020799740217626]
[test acc: 0.992, test loss: 0.025377826765179634]
HMDL CLF ACC AND LOSS DONE. [time: 98.40181469917297 s]


KERAS MODEL SUMMARY:
Model: "sequential"
_________________________________________________________________
 Layer (type)                Output Shape              Param #   
=================================================================
 c0 (Conv2D)                 (None, 28, 28, 64)        1664      
                                                                 
 m1 (MaxPooling2D)           (None, 14, 14, 64)        0         
                                                                 
 dr2 (Dropout)               (None, 14, 14, 64)        0         
                                                                 
 c3 (Conv2D)                 (None, 14, 14, 128)       73856     
                                                                 
 m4 (MaxPooling2D)           (None, 7, 7, 128)         0         
                                                                 
 dr5 (Dropout)               (None, 7, 7, 128)         0         
                                                                 
 f6 (Flatten)                (None, 6272)              0         
                                                                 
 d7 (Dense)                  (None, 128)               802944    
                                                                 
 dr8 (Dropout)               (None, 128)               0         
                                                                 
 d9 (Dense)                  (None, 10)                1290      
                                                                 
=================================================================
Total params: 879,754
Trainable params: 879,754
Non-trainable params: 0
_________________________________________________________________

KERAS CLF ACC AND LOSS... [before fit]

   1/1875 [..............................] - ETA: 1:12:54 - loss: 3.2877 - accuracy: 0.0938
…
