…
------------------------------------------------------------------------------------------------------------------------------------------------------------------------------------------------------------------------------
NO. LAYER   TYPE        INPUT SHAPE             EXTRA INFO  ACTIVATION    OUTPUT SHAPE          DO FORWARD IMPL       DO BACKWARD IMPL      DO BACKWARD OUTPUT IMPL   L1 PENALTIES        L2 PENALTIES        PARAMS          
------------------------------------------------------------------------------------------------------------------------------------------------------------------------------------------------------------------------------
0   c0      Conv2D      (None, 32, 32, 3)       3x3         relu          (None, 32, 32, 32)    numba_cuda_tiles      numba_cuda_direct     numba_cuda_direct                                                 896             
1   c1      Conv2D      (None, 32, 32, 32)      3x3         relu          (None, 32, 32, 32)    numba_cuda_direct     numba_cuda_direct     numba_cuda_direct                                                 9248            
2   m2      MaxPool2D   (None, 32, 32, 32)      2x2                       (None, 16, 16, 32)    numba_cuda_direct                           numba_cuda_direct                                                 0               
3   dr3     Dropout     (None, 16, 16, 32)      0.125                     (None, 16, 16, 32)                                                                                                                  0               
4   c4      Conv2D      (None, 16, 16, 32)      3x3         relu          (None, 16, 16, 64)    numba_cuda_direct     numba_cuda_direct     numba_cuda_direct                                                 18496           
5   c5      Conv2D      (None, 16, 16, 64)      3x3         relu          (None, 16, 16, 64)    numba_cuda_direct     numba_cuda_direct     numba_cuda_direct                                                 36928           
6   m6      MaxPool2D   (None, 16, 16, 64)      2x2                       (None, 8, 8, 64)      numba_cuda_direct                           numba_cuda_direct                                                 0               
7   dr7     Dropout     (None, 8, 8, 64)        0.125                     (None, 8, 8, 64)                                                                                                                    0               
8   c8      Conv2D      (None, 8, 8, 64)        3x3         relu          (None, 8, 8, 128)     numba_cuda_direct     numba_cuda_direct     numba_cuda_direct                                                 73856           
9   c9      Conv2D      (None, 8, 8, 128)       3x3         relu          (None, 8, 8, 128)     numba_cuda_direct     numba_cuda_direct     numba_cuda_direct                                                 147584          
10  m10     MaxPool2D   (None, 8, 8, 128)       2x2                       (None, 4, 4, 128)     numba_cuda_direct                           numba_cuda_direct                                                 0               
11  dr11    Dropout     (None, 4, 4, 128)       0.125                     (None, 4, 4, 128)                                                                                                                   0               
12  f12     Flatten     (None, 4, 4, 128)                                 (None, 2048)                                                                                                                        0               
13  d13     Dense       (None, 2048)                        relu          (None, 128)           numpy                 numpy                 numpy                                                             262272          
14  dr14    Dropout     (None, 128)             0.125                     (None, 128)                                                                                                                         0               
15  d15     Dense       (None, 128)                         softmax       (None, 10)            numpy                 numpy                 numpy                                                             1290            
------------------------------------------------------------------------------------------------------------------------------------------------------------------------------------------------------------------------------
…
HMDL FIT DONE. [time: 52878.2985970974 s]
DO PICKLE... [to: ./hmdl_clfs/quadro_m4000m/0843263662_hmdl_clf.bin]
DO PICKLE DONE. [time: 0.2922506332397461 s]

HMDL CLF ACC AND LOSS... [after fit]
[train acc: 0.99986, train loss: 0.0025914020370692015]
[test acc: 0.8093, test loss: 1.0049141645431519]
HMDL CLF ACC AND LOSS DONE. [time: 161.16896724700928 s]


KERAS MODEL SUMMARY:
Model: "sequential"
_________________________________________________________________
 Layer (type)                Output Shape              Param #   
=================================================================
 c0 (Conv2D)                 (None, 32, 32, 32)        896       
                                                                 
 c1 (Conv2D)                 (None, 32, 32, 32)        9248      
                                                                 
 m2 (MaxPooling2D)           (None, 16, 16, 32)        0         
                                                                 
 dr3 (Dropout)               (None, 16, 16, 32)        0         
                                                                 
 c4 (Conv2D)                 (None, 16, 16, 64)        18496     
                                                                 
 c5 (Conv2D)                 (None, 16, 16, 64)        36928     
                                                                 
 m6 (MaxPooling2D)           (None, 8, 8, 64)          0         
                                                                 
 dr7 (Dropout)               (None, 8, 8, 64)          0         
                                                                 
 c8 (Conv2D)                 (None, 8, 8, 128)         73856     
                                                                 
 c9 (Conv2D)                 (None, 8, 8, 128)         147584    
                                                                 
 m10 (MaxPooling2D)          (None, 4, 4, 128)         0         
                                                                 
 dr11 (Dropout)              (None, 4, 4, 128)         0         
                                                                 
 f12 (Flatten)               (None, 2048)              0         
                                                                 
 d13 (Dense)                 (None, 128)               262272    
                                                                 
 dr14 (Dropout)              (None, 128)               0         
                                                                 
 d15 (Dense)                 (None, 10)                1290      
                                                                 
=================================================================
Total params: 550,570
Trainable params: 550,570
Non-trainable params: 0
_________________________________________________________________

KERAS CLF ACC AND LOSS... [before fit]

   1/1563 [..............................] - ETA: 1:08:59 - loss: 2.5007 - accuracy: 0.1250
…
