…
------------------------------------------------------------------------------------------------------------------------------------------------------------------------------------------------------------------------------
NO. LAYER   TYPE        INPUT SHAPE             EXTRA INFO  ACTIVATION    OUTPUT SHAPE          DO FORWARD IMPL       DO BACKWARD IMPL      DO BACKWARD OUTPUT IMPL   L1 PENALTIES        L2 PENALTIES        PARAMS          
------------------------------------------------------------------------------------------------------------------------------------------------------------------------------------------------------------------------------
0   c0      Conv2D      (None, 64, 64, 1)       5x5         relu          (None, 64, 64, 8)     numba_cuda_tiles      numba_cuda_direct     numba_cuda_tiles                                                  208             
1   m1      MaxPool2D   (None, 64, 64, 8)       4x4                       (None, 16, 16, 8)     numba_cuda_direct                           numba_cuda_direct                                                 0               
2   dr2     Dropout     (None, 16, 16, 8)       0.25                      (None, 16, 16, 8)                                                                                                                   0               
3   c3      Conv2D      (None, 16, 16, 8)       3x3         relu          (None, 16, 16, 16)    numba_cuda_direct     numba_cuda_direct     numba_cuda_direct                                                 1168            
4   m4      MaxPool2D   (None, 16, 16, 16)      2x2                       (None, 8, 8, 16)      numba_cuda_direct                           numba_cuda_direct                                                 0               
5   dr5     Dropout     (None, 8, 8, 16)        0.25                      (None, 8, 8, 16)                                                                                                                    0               
6   f6      Flatten     (None, 8, 8, 16)                                  (None, 1024)                                                                                                                        0               
7   d7      Dense       (None, 1024)                        relu          (None, 64)            numpy                 numpy                 numpy                                                             65600           
8   dr8     Dropout     (None, 64)              0.25                      (None, 64)                                                                                                                          0               
9   d9      Dense       (None, 64)                          softmax       (None, 40)            numpy                 numpy                 numpy                                                             2600            
------------------------------------------------------------------------------------------------------------------------------------------------------------------------------------------------------------------------------
…
HMDL FIT DONE. [time: 57.435994148254395 s]
DO PICKLE... [to: ./hmdl_clfs/quadro_m4000m/1035804442_hmdl_clf.bin]
DO PICKLE DONE. [time: 0.03389596939086914 s]

HMDL CLF ACC AND LOSS... [after fit]
[train acc: 1.0, train loss: 0.0034938629250973463]
[test acc: 0.9416666666666667, test loss: 0.18571968376636505]
HMDL CLF ACC AND LOSS DONE. [time: 0.21426773071289062 s]


KERAS MODEL SUMMARY:
Model: "sequential"
_________________________________________________________________
 Layer (type)                Output Shape              Param #   
=================================================================
 c0 (Conv2D)                 (None, 64, 64, 8)         208       
                                                                 
 m1 (MaxPooling2D)           (None, 16, 16, 8)         0         
                                                                 
 dr2 (Dropout)               (None, 16, 16, 8)         0         
                                                                 
 c3 (Conv2D)                 (None, 16, 16, 16)        1168      
                                                                 
 m4 (MaxPooling2D)           (None, 8, 8, 16)          0         
                                                                 
 dr5 (Dropout)               (None, 8, 8, 16)          0         
                                                                 
 f6 (Flatten)                (None, 1024)              0         
                                                                 
 d7 (Dense)                  (None, 64)                65600     
                                                                 
 dr8 (Dropout)               (None, 64)                0         
                                                                 
 d9 (Dense)                  (None, 40)                2600      
                                                                 
=================================================================
Total params: 69,576
Trainable params: 69,576
Non-trainable params: 0
_________________________________________________________________

KERAS CLF ACC AND LOSS... [before fit]

1/9 [==>...........................] - ETA: 13s - loss: 3.7560 - accuracy: 0.0000e+00
…
