…
------------------------------------------------------------------------------------------------------------------------------------------------------------------------------------------------------------------------------
NO. LAYER   TYPE        INPUT SHAPE             EXTRA INFO  ACTIVATION    OUTPUT SHAPE          DO FORWARD IMPL       DO BACKWARD IMPL      DO BACKWARD OUTPUT IMPL   L1 PENALTIES        L2 PENALTIES        PARAMS          
------------------------------------------------------------------------------------------------------------------------------------------------------------------------------------------------------------------------------
0   c0      Conv2D      (None, 64, 64, 1)       5x5         relu          (None, 64, 64, 8)     numba_cuda_tiles      numba_cuda_direct     numba_cuda_tiles                                                  208             
1   c1      Conv2D      (None, 64, 64, 8)       5x5         relu          (None, 64, 64, 8)     numba_cuda_tiles      numba_cuda_direct     numba_cuda_tiles                                                  1608            
2   m2      MaxPool2D   (None, 64, 64, 8)       4x4                       (None, 16, 16, 8)     numba_cuda_direct                           numba_cuda_direct                                                 0               
3   dr3     Dropout     (None, 16, 16, 8)       0.25                      (None, 16, 16, 8)                                                                                                                   0               
4   c4      Conv2D      (None, 16, 16, 8)       3x3         relu          (None, 16, 16, 32)    numba_cuda_direct     numba_cuda_direct     numba_cuda_direct                                                 2336            
5   c5      Conv2D      (None, 16, 16, 32)      3x3         relu          (None, 16, 16, 32)    numba_cuda_direct     numba_cuda_direct     numba_cuda_direct                                                 9248            
6   m6      MaxPool2D   (None, 16, 16, 32)      2x2                       (None, 8, 8, 32)      numba_cuda_direct                           numba_cuda_direct                                                 0               
7   dr7     Dropout     (None, 8, 8, 32)        0.25                      (None, 8, 8, 32)                                                                                                                    0               
8   f8      Flatten     (None, 8, 8, 32)                                  (None, 2048)                                                                                                                        0               
9   d9      Dense       (None, 2048)                        relu          (None, 64)            numpy                 numpy                 numpy                                                             131136          
10  dr10    Dropout     (None, 64)              0.25                      (None, 64)                                                                                                                          0               
11  d11     Dense       (None, 64)                          softmax       (None, 40)            numpy                 numpy                 numpy                                                             2600            
------------------------------------------------------------------------------------------------------------------------------------------------------------------------------------------------------------------------------
…
HMDL FIT DONE. [time: 149.90609550476074 s]
DO PICKLE... [to: ./hmdl_clfs/quadro_m4000m/1466991051_hmdl_clf.bin]
DO PICKLE DONE. [time: 0.07683014869689941 s]

HMDL CLF ACC AND LOSS... [after fit]
[train acc: 1.0, train loss: 0.00013932021101936698]
[test acc: 0.9166666666666666, test loss: 0.3163265287876129]
HMDL CLF ACC AND LOSS DONE. [time: 0.5574343204498291 s]


KERAS MODEL SUMMARY:
Model: "sequential"
_________________________________________________________________
 Layer (type)                Output Shape              Param #   
=================================================================
 c0 (Conv2D)                 (None, 64, 64, 8)         208       
                                                                 
 c1 (Conv2D)                 (None, 64, 64, 8)         1608      
                                                                 
 m2 (MaxPooling2D)           (None, 16, 16, 8)         0         
                                                                 
 dr3 (Dropout)               (None, 16, 16, 8)         0         
                                                                 
 c4 (Conv2D)                 (None, 16, 16, 32)        2336      
                                                                 
 c5 (Conv2D)                 (None, 16, 16, 32)        9248      
                                                                 
 m6 (MaxPooling2D)           (None, 8, 8, 32)          0         
                                                                 
 dr7 (Dropout)               (None, 8, 8, 32)          0         
                                                                 
 f8 (Flatten)                (None, 2048)              0         
                                                                 
 d9 (Dense)                  (None, 64)                131136    
                                                                 
 dr10 (Dropout)              (None, 64)                0         
                                                                 
 d11 (Dense)                 (None, 40)                2600      
                                                                 
=================================================================
Total params: 147,136
Trainable params: 147,136
Non-trainable params: 0
_________________________________________________________________

KERAS CLF ACC AND LOSS... [before fit]

1/9 [==>...........................] - ETA: 14s - loss: 3.7752 - accuracy: 0.0000e+00
…
