…
------------------------------------------------------------------------------------------------------------------------------------------------------------------------------------------------------------------------------
NO. LAYER   TYPE        INPUT SHAPE             EXTRA INFO  ACTIVATION    OUTPUT SHAPE          DO FORWARD IMPL       DO BACKWARD IMPL      DO BACKWARD OUTPUT IMPL   L1 PENALTIES        L2 PENALTIES        PARAMS          
------------------------------------------------------------------------------------------------------------------------------------------------------------------------------------------------------------------------------
0   c0      Conv2D      (None, 28, 28, 1)       5x5         relu          (None, 28, 28, 32)    numba_cuda_tiles      numba_cuda_direct     numba_cuda_tiles                                                  832             
1   c1      Conv2D      (None, 28, 28, 32)      5x5         relu          (None, 28, 28, 32)    numba_cuda_direct     numba_cuda_direct     numba_cuda_tiles                                                  25632           
2   m2      MaxPool2D   (None, 28, 28, 32)      2x2                       (None, 14, 14, 32)    numba_cuda_direct                           numba_cuda_direct                                                 0               
3   dr3     Dropout     (None, 14, 14, 32)      0.125                     (None, 14, 14, 32)                                                                                                                  0               
4   c4      Conv2D      (None, 14, 14, 32)      3x3         relu          (None, 14, 14, 64)    numba_cuda_direct     numba_cuda_direct     numba_cuda_direct                                                 18496           
5   c5      Conv2D      (None, 14, 14, 64)      3x3         relu          (None, 14, 14, 64)    numba_cuda_direct     numba_cuda_direct     numba_cuda_direct                                                 36928           
6   m6      MaxPool2D   (None, 14, 14, 64)      2x2                       (None, 7, 7, 64)      numba_cuda_direct                           numba_cuda_direct                                                 0               
7   dr7     Dropout     (None, 7, 7, 64)        0.25                      (None, 7, 7, 64)                                                                                                                    0               
8   c8      Conv2D      (None, 7, 7, 64)        3x3         relu          (None, 7, 7, 128)     numba_cuda_direct     numba_cuda_direct     numba_cuda_direct                                                 73856           
9   c9      Conv2D      (None, 7, 7, 128)       3x3         relu          (None, 7, 7, 128)     numba_cuda_direct     numba_cuda_direct     numba_cuda_direct                                                 147584          
10  m10     MaxPool2D   (None, 7, 7, 128)       2x2                       (None, 3, 3, 128)     numba_cuda_direct                           numba_cuda_direct                                                 0               
11  dr11    Dropout     (None, 3, 3, 128)       0.5                       (None, 3, 3, 128)                                                                                                                   0               
12  f12     Flatten     (None, 3, 3, 128)                                 (None, 1152)                                                                                                                        0               
13  d13     Dense       (None, 1152)                        relu          (None, 128)           numpy                 numpy                 numpy                                                             147584          
14  dr14    Dropout     (None, 128)             0.5                       (None, 128)                                                                                                                         0               
15  d15     Dense       (None, 128)                         softmax       (None, 10)            numpy                 numpy                 numpy                                                             1290            
------------------------------------------------------------------------------------------------------------------------------------------------------------------------------------------------------------------------------
…
HMDL FIT DONE. [time: 65518.24567103386 s]
DO PICKLE... [to: ./hmdl_clfs/quadro_m4000m/1584841448_hmdl_clf.bin]
DO PICKLE DONE. [time: 0.2452991008758545 s]

HMDL CLF ACC AND LOSS... [after fit]
[train acc: 0.9959, train loss: 0.013349317014217377]
[test acc: 0.9929, test loss: 0.02405860833823681]
HMDL CLF ACC AND LOSS DONE. [time: 198.33600974082947 s]


KERAS MODEL SUMMARY:
Model: "sequential"
_________________________________________________________________
 Layer (type)                Output Shape              Param #   
=================================================================
 c0 (Conv2D)                 (None, 28, 28, 32)        832       
                                                                 
 c1 (Conv2D)                 (None, 28, 28, 32)        25632     
                                                                 
 m2 (MaxPooling2D)           (None, 14, 14, 32)        0         
                                                                 
 dr3 (Dropout)               (None, 14, 14, 32)        0         
                                                                 
 c4 (Conv2D)                 (None, 14, 14, 64)        18496     
                                                                 
 c5 (Conv2D)                 (None, 14, 14, 64)        36928     
                                                                 
 m6 (MaxPooling2D)           (None, 7, 7, 64)          0         
                                                                 
 dr7 (Dropout)               (None, 7, 7, 64)          0         
                                                                 
 c8 (Conv2D)                 (None, 7, 7, 128)         73856     
                                                                 
 c9 (Conv2D)                 (None, 7, 7, 128)         147584    
                                                                 
 m10 (MaxPooling2D)          (None, 3, 3, 128)         0         
                                                                 
 dr11 (Dropout)              (None, 3, 3, 128)         0         
                                                                 
 f12 (Flatten)               (None, 1152)              0         
                                                                 
 d13 (Dense)                 (None, 128)               147584    
                                                                 
 dr14 (Dropout)              (None, 128)               0         
                                                                 
 d15 (Dense)                 (None, 10)                1290      
                                                                 
=================================================================
Total params: 452,202
Trainable params: 452,202
Non-trainable params: 0
_________________________________________________________________

KERAS CLF ACC AND LOSS... [before fit]

   1/1875 [..............................] - ETA: 7:15:09 - loss: 5.2291 - accuracy: 0.0312
…
