…
------------------------------------------------------------------------------------------------------------------------------------------------------------------------------------------------------------------------------
NO. LAYER   TYPE        INPUT SHAPE             EXTRA INFO  ACTIVATION    OUTPUT SHAPE          DO FORWARD IMPL       DO BACKWARD IMPL      DO BACKWARD OUTPUT IMPL   L1 PENALTIES        L2 PENALTIES        PARAMS          
------------------------------------------------------------------------------------------------------------------------------------------------------------------------------------------------------------------------------
0   c0      Conv2D      (None, 64, 64, 1)       5x5         relu          (None, 64, 64, 8)     numba_cuda_tiles      numba_cuda_direct     numba_cuda_tiles                                                  208             
1   m1      MaxPool2D   (None, 64, 64, 8)       2x2                       (None, 32, 32, 8)     numba_cuda_direct                           numba_cuda_direct                                                 0               
2   dr2     Dropout     (None, 32, 32, 8)       0.125                     (None, 32, 32, 8)                                                                                                                   0               
3   c3      Conv2D      (None, 32, 32, 8)       3x3         relu          (None, 32, 32, 16)    numba_cuda_direct     numba_cuda_direct     numba_cuda_tiles                                                  1168            
4   m4      MaxPool2D   (None, 32, 32, 16)      2x2                       (None, 16, 16, 16)    numba_cuda_direct                           numba_cuda_direct                                                 0               
5   dr5     Dropout     (None, 16, 16, 16)      0.25                      (None, 16, 16, 16)                                                                                                                  0               
6   f6      Flatten     (None, 16, 16, 16)                                (None, 4096)                                                                                                                        0               
7   d7      Dense       (None, 4096)                        relu          (None, 64)            numpy                 numpy                 numpy                                                             262208          
8   dr8     Dropout     (None, 64)              0.5                       (None, 64)                                                                                                                          0               
9   d9      Dense       (None, 64)                          softmax       (None, 40)            numpy                 numpy                 numpy                                                             2600            
------------------------------------------------------------------------------------------------------------------------------------------------------------------------------------------------------------------------------
…
HMDL FIT DONE. [time: 71.19405746459961 s]
DO PICKLE... [to: ./hmdl_clfs/1353162891_hmdl_clf.bin]
DO PICKLE DONE. [time: 0.13567566871643066 s]

HMDL CLF ACC AND LOSS... [after fit]
[train acc: 1.0, train loss: 0.006760079879313707]
[test acc: 0.9166666666666666, test loss: 0.3581122159957886]
HMDL CLF ACC AND LOSS DONE. [time: 0.2557978630065918 s]


KERAS MODEL SUMMARY:
Model: "sequential"
_________________________________________________________________
 Layer (type)                Output Shape              Param #   
=================================================================
 c0 (Conv2D)                 (None, 64, 64, 8)         208       
                                                                 
 m1 (MaxPooling2D)           (None, 32, 32, 8)         0         
                                                                 
 dr2 (Dropout)               (None, 32, 32, 8)         0         
                                                                 
 c3 (Conv2D)                 (None, 32, 32, 16)        1168      
                                                                 
 m4 (MaxPooling2D)           (None, 16, 16, 16)        0         
                                                                 
 dr5 (Dropout)               (None, 16, 16, 16)        0         
                                                                 
 f6 (Flatten)                (None, 4096)              0         
                                                                 
 d7 (Dense)                  (None, 64)                262208    
                                                                 
 dr8 (Dropout)               (None, 64)                0         
                                                                 
 d9 (Dense)                  (None, 40)                2600      
                                                                 
=================================================================
Total params: 266,184
Trainable params: 266,184
Non-trainable params: 0
_________________________________________________________________

KERAS CLF ACC AND LOSS... [before fit]

1/9 [==>...........................] - ETA: 14s - loss: 3.7484 - accuracy: 0.0312
9/9 [==============================] - ETA: 0s - loss: 3.7315 - accuracy: 0.0357 
…
