…
------------------------------------------------------------------------------------------------------------------------------------------------------------------------------------------------------------------------------
NO. LAYER   TYPE        INPUT SHAPE             EXTRA INFO  ACTIVATION    OUTPUT SHAPE          DO FORWARD IMPL       DO BACKWARD IMPL      DO BACKWARD OUTPUT IMPL   L1 PENALTIES        L2 PENALTIES        PARAMS          
------------------------------------------------------------------------------------------------------------------------------------------------------------------------------------------------------------------------------
0   c0      Conv2D      (None, 32, 32, 3)       3x3         relu          (None, 32, 32, 32)    numba_cuda_tiles      numba_cuda_direct     numba_cuda_direct                                                 896             
1   c1      Conv2D      (None, 32, 32, 32)      3x3         relu          (None, 32, 32, 32)    numba_cuda_direct     numba_cuda_direct     numba_cuda_direct                                                 9248            
2   m2      MaxPool2D   (None, 32, 32, 32)      2x2                       (None, 16, 16, 32)    numba_cuda_direct                           numba_cuda_direct                                                 0               
3   dr3     Dropout     (None, 16, 16, 32)      0.125                     (None, 16, 16, 32)                                                                                                                  0               
4   c4      Conv2D      (None, 16, 16, 32)      3x3         relu          (None, 16, 16, 64)    numba_cuda_direct     numba_cuda_direct     numba_cuda_direct                                                 18496           
5   c5      Conv2D      (None, 16, 16, 64)      3x3         relu          (None, 16, 16, 64)    numba_cuda_direct     numba_cuda_direct     numba_cuda_direct                                                 36928           
6   m6      MaxPool2D   (None, 16, 16, 64)      2x2                       (None, 8, 8, 64)      numba_cuda_direct                           numba_cuda_direct                                                 0               
7   dr7     Dropout     (None, 8, 8, 64)        0.125                     (None, 8, 8, 64)                                                                                                                    0               
8   f8      Flatten     (None, 8, 8, 64)                                  (None, 4096)                                                                                                                        0               
9   d9      Dense       (None, 4096)                        relu          (None, 128)           numpy                 numpy                 numpy                                                             524416          
10  dr10    Dropout     (None, 128)             0.125                     (None, 128)                                                                                                                         0               
11  d11     Dense       (None, 128)                         softmax       (None, 10)            numpy                 numpy                 numpy                                                             1290            
------------------------------------------------------------------------------------------------------------------------------------------------------------------------------------------------------------------------------
…
HMDL FIT DONE. [time: 33930.22786998749 s]
DO PICKLE... [to: ./hmdl_clfs/1676196221_hmdl_clf.bin]
DO PICKLE DONE. [time: 0.32312607765197754 s]

HMDL CLF ACC AND LOSS... [after fit]
[train acc: 0.9993, train loss: 0.01105323527008295]
[test acc: 0.7654, test loss: 1.1371711492538452]
HMDL CLF ACC AND LOSS DONE. [time: 119.38037514686584 s]


KERAS MODEL SUMMARY:
Model: "sequential"
_________________________________________________________________
 Layer (type)                Output Shape              Param #   
=================================================================
 c0 (Conv2D)                 (None, 32, 32, 32)        896       
                                                                 
 c1 (Conv2D)                 (None, 32, 32, 32)        9248      
                                                                 
 m2 (MaxPooling2D)           (None, 16, 16, 32)        0         
                                                                 
 dr3 (Dropout)               (None, 16, 16, 32)        0         
                                                                 
 c4 (Conv2D)                 (None, 16, 16, 64)        18496     
                                                                 
 c5 (Conv2D)                 (None, 16, 16, 64)        36928     
                                                                 
 m6 (MaxPooling2D)           (None, 8, 8, 64)          0         
                                                                 
 dr7 (Dropout)               (None, 8, 8, 64)          0         
                                                                 
 f8 (Flatten)                (None, 4096)              0         
                                                                 
 d9 (Dense)                  (None, 128)               524416    
                                                                 
 dr10 (Dropout)              (None, 128)               0         
                                                                 
 d11 (Dense)                 (None, 10)                1290      
                                                                 
=================================================================
Total params: 591,274
Trainable params: 591,274
Non-trainable params: 0
_________________________________________________________________

KERAS CLF ACC AND LOSS... [before fit]

   1/1563 [..............................] - ETA: 1:15:46 - loss: 2.4421 - accuracy: 0.0938
…
