…
------------------------------------------------------------------------------------------------------------------------------------------------------------------------------------------------------------------------------
NO. LAYER   TYPE        INPUT SHAPE             EXTRA INFO  ACTIVATION    OUTPUT SHAPE          DO FORWARD IMPL       DO BACKWARD IMPL      DO BACKWARD OUTPUT IMPL   L1 PENALTIES        L2 PENALTIES        PARAMS          
------------------------------------------------------------------------------------------------------------------------------------------------------------------------------------------------------------------------------
0   c0      Conv2D      (None, 28, 28, 1)       5x5         relu          (None, 28, 28, 32)    numba_cuda_tiles      numba_cuda_direct     numba_cuda_tiles                                                  832             
1   c1      Conv2D      (None, 28, 28, 32)      5x5         relu          (None, 28, 28, 32)    numba_cuda_direct     numba_cuda_direct     numba_cuda_tiles                                                  25632           
2   m2      MaxPool2D   (None, 28, 28, 32)      2x2                       (None, 14, 14, 32)    numba_cuda_direct                           numba_cuda_direct                                                 0               
3   dr3     Dropout     (None, 14, 14, 32)      0.125                     (None, 14, 14, 32)                                                                                                                  0               
4   c4      Conv2D      (None, 14, 14, 32)      3x3         relu          (None, 14, 14, 64)    numba_cuda_direct     numba_cuda_direct     numba_cuda_direct                                                 18496           
5   c5      Conv2D      (None, 14, 14, 64)      3x3         relu          (None, 14, 14, 64)    numba_cuda_direct     numba_cuda_direct     numba_cuda_direct                                                 36928           
6   m6      MaxPool2D   (None, 14, 14, 64)      2x2                       (None, 7, 7, 64)      numba_cuda_direct                           numba_cuda_direct                                                 0               
7   dr7     Dropout     (None, 7, 7, 64)        0.25                      (None, 7, 7, 64)                                                                                                                    0               
8   f8      Flatten     (None, 7, 7, 64)                                  (None, 3136)                                                                                                                        0               
9   d9      Dense       (None, 3136)                        relu          (None, 128)           numpy                 numpy                 numpy                                                             401536          
10  dr10    Dropout     (None, 128)             0.5                       (None, 128)                                                                                                                         0               
11  d11     Dense       (None, 128)                         softmax       (None, 10)            numpy                 numpy                 numpy                                                             1290            
------------------------------------------------------------------------------------------------------------------------------------------------------------------------------------------------------------------------------
…
HMDL FIT DONE. [time: 47351.79148387909 s]
DO PICKLE... [to: ./hmdl_clfs/1916243078_hmdl_clf.bin]
DO PICKLE DONE. [time: 0.2553529739379883 s]

HMDL CLF ACC AND LOSS... [after fit]
[train acc: 0.9994166666666666, train loss: 0.002590767340734601]
[test acc: 0.9948, test loss: 0.017454858869314194]
HMDL CLF ACC AND LOSS DONE. [time: 151.26036071777344 s]


KERAS MODEL SUMMARY:
Model: "sequential"
_________________________________________________________________
 Layer (type)                Output Shape              Param #   
=================================================================
 c0 (Conv2D)                 (None, 28, 28, 32)        832       
                                                                 
 c1 (Conv2D)                 (None, 28, 28, 32)        25632     
                                                                 
 m2 (MaxPooling2D)           (None, 14, 14, 32)        0         
                                                                 
 dr3 (Dropout)               (None, 14, 14, 32)        0         
                                                                 
 c4 (Conv2D)                 (None, 14, 14, 64)        18496     
                                                                 
 c5 (Conv2D)                 (None, 14, 14, 64)        36928     
                                                                 
 m6 (MaxPooling2D)           (None, 7, 7, 64)          0         
                                                                 
 dr7 (Dropout)               (None, 7, 7, 64)          0         
                                                                 
 f8 (Flatten)                (None, 3136)              0         
                                                                 
 d9 (Dense)                  (None, 128)               401536    
                                                                 
 dr10 (Dropout)              (None, 128)               0         
                                                                 
 d11 (Dense)                 (None, 10)                1290      
                                                                 
=================================================================
Total params: 484,714
Trainable params: 484,714
Non-trainable params: 0
_________________________________________________________________

KERAS CLF ACC AND LOSS... [before fit]

   1/1875 [..............................] - ETA: 2:29:13 - loss: 3.4962 - accuracy: 0.1875
…
