…
------------------------------------------------------------------------------------------------------------------------------------------------------------------------------------------------------------------------------
NO. LAYER   TYPE        INPUT SHAPE             EXTRA INFO  ACTIVATION    OUTPUT SHAPE          DO FORWARD IMPL       DO BACKWARD IMPL      DO BACKWARD OUTPUT IMPL   L1 PENALTIES        L2 PENALTIES        PARAMS          
------------------------------------------------------------------------------------------------------------------------------------------------------------------------------------------------------------------------------
0   c0      Conv2D      (None, 28, 28, 1)       7x7         relu          (None, 28, 28, 64)    numba_cuda_tiles      numba_cuda_direct     numba_cuda_tiles                                                  3200            
1   m1      MaxPool2D   (None, 28, 28, 64)      2x2                       (None, 14, 14, 64)    numba_cuda_direct                           numba_cuda_direct                                                 0               
2   dr2     Dropout     (None, 14, 14, 64)      0.125                     (None, 14, 14, 64)                                                                                                                  0               
3   c3      Conv2D      (None, 14, 14, 64)      5x5         relu          (None, 14, 14, 128)   numba_cuda_direct     numba_cuda_direct     numba_cuda_direct                                                 204928          
4   m4      MaxPool2D   (None, 14, 14, 128)     2x2                       (None, 7, 7, 128)     numba_cuda_direct                           numba_cuda_direct                                                 0               
5   dr5     Dropout     (None, 7, 7, 128)       0.125                     (None, 7, 7, 128)                                                                                                                   0               
6   f6      Flatten     (None, 7, 7, 128)                                 (None, 6272)                                                                                                                        0               
7   d7      Dense       (None, 6272)                        relu          (None, 128)           numpy                 numpy                 numpy                                                             802944          
8   dr8     Dropout     (None, 128)             0.125                     (None, 128)                                                                                                                         0               
9   d9      Dense       (None, 128)                         softmax       (None, 10)            numpy                 numpy                 numpy                                                             1290            
------------------------------------------------------------------------------------------------------------------------------------------------------------------------------------------------------------------------------
…
HMDL FIT DONE. [time: 67425.28907203674 s]
DO PICKLE... [to: ./hmdl_clfs/2037082629_hmdl_clf.bin]
DO PICKLE DONE. [time: 0.6023895740509033 s]

HMDL CLF ACC AND LOSS... [after fit]
[train acc: 0.9996333333333334, train loss: 0.0017154570668935776]
[test acc: 0.9927, test loss: 0.024975957348942757]
HMDL CLF ACC AND LOSS DONE. [time: 175.99115633964539 s]


KERAS MODEL SUMMARY:
Model: "sequential"
_________________________________________________________________
 Layer (type)                Output Shape              Param #   
=================================================================
 c0 (Conv2D)                 (None, 28, 28, 64)        3200      
                                                                 
 m1 (MaxPooling2D)           (None, 14, 14, 64)        0         
                                                                 
 dr2 (Dropout)               (None, 14, 14, 64)        0         
                                                                 
 c3 (Conv2D)                 (None, 14, 14, 128)       204928    
                                                                 
 m4 (MaxPooling2D)           (None, 7, 7, 128)         0         
                                                                 
 dr5 (Dropout)               (None, 7, 7, 128)         0         
                                                                 
 f6 (Flatten)                (None, 6272)              0         
                                                                 
 d7 (Dense)                  (None, 128)               802944    
                                                                 
 dr8 (Dropout)               (None, 128)               0         
                                                                 
 d9 (Dense)                  (None, 10)                1290      
                                                                 
=================================================================
Total params: 1,012,362
Trainable params: 1,012,362
Non-trainable params: 0
_________________________________________________________________

KERAS CLF ACC AND LOSS... [before fit]

   1/1875 [..............................] - ETA: 1:22:01 - loss: 2.8717 - accuracy: 0.1875
…
