…
------------------------------------------------------------------------------------------------------------------------------------------------------------------------------------------------------------------------------
NO. LAYER   TYPE        INPUT SHAPE             EXTRA INFO  ACTIVATION    OUTPUT SHAPE          DO FORWARD IMPL       DO BACKWARD IMPL      DO BACKWARD OUTPUT IMPL   L1 PENALTIES        L2 PENALTIES        PARAMS          
------------------------------------------------------------------------------------------------------------------------------------------------------------------------------------------------------------------------------
0   c0      Conv2D      (None, 28, 28, 1)       7x7         relu          (None, 28, 28, 16)    numba_cuda_tiles      numba_cuda_direct     numba_cuda_tiles                                                  800             
1   c1      Conv2D      (None, 28, 28, 16)      7x7         relu          (None, 28, 28, 16)    numba_cuda_tiles      numba_cuda_direct     numba_cuda_tiles                                                  12560           
2   m2      MaxPool2D   (None, 28, 28, 16)      2x2                       (None, 14, 14, 16)    numba_cuda_direct                           numba_cuda_direct                                                 0               
3   dr3     Dropout     (None, 14, 14, 16)      0.125                     (None, 14, 14, 16)                                                                                                                  0               
4   c4      Conv2D      (None, 14, 14, 16)      5x5         relu          (None, 14, 14, 32)    numba_cuda_direct     numba_cuda_direct     numba_cuda_direct                                                 12832           
5   c5      Conv2D      (None, 14, 14, 32)      5x5         relu          (None, 14, 14, 32)    numba_cuda_direct     numba_cuda_direct     numba_cuda_direct                                                 25632           
6   m6      MaxPool2D   (None, 14, 14, 32)      2x2                       (None, 7, 7, 32)      numba_cuda_direct                           numba_cuda_direct                                                 0               
7   dr7     Dropout     (None, 7, 7, 32)        0.25                      (None, 7, 7, 32)                                                                                                                    0               
8   c8      Conv2D      (None, 7, 7, 32)        3x3         relu          (None, 7, 7, 64)      numba_cuda_direct     numba_cuda_direct     numba_cuda_direct                                                 18496           
9   c9      Conv2D      (None, 7, 7, 64)        3x3         relu          (None, 7, 7, 64)      numba_cuda_direct     numba_cuda_direct     numba_cuda_direct                                                 36928           
10  m10     MaxPool2D   (None, 7, 7, 64)        2x2                       (None, 3, 3, 64)      numba_cuda_direct                           numba_cuda_direct                                                 0               
11  dr11    Dropout     (None, 3, 3, 64)        0.5                       (None, 3, 3, 64)                                                                                                                    0               
12  f12     Flatten     (None, 3, 3, 64)                                  (None, 576)                                                                                                                         0               
13  d13     Dense       (None, 576)                         relu          (None, 128)           numpy                 numpy                 numpy                                                             73856           
14  d14     Dense       (None, 128)                         softmax       (None, 10)            numpy                 numpy                 numpy                                                             1290            
…
HMDL FIT DONE. [time: 29229.518901586533 s]
DO PICKLE... [to: ./hmdl_clfs/2529620188_hmdl_clf.bin]
DO PICKLE DONE. [time: 0.11479973793029785 s]

HMDL CLF ACC AND LOSS... [after fit]
[train acc: 0.9973666666666666, train loss: 0.008782315999269485]
[test acc: 0.993, test loss: 0.024209778755903244]
HMDL CLF ACC AND LOSS DONE. [time: 101.97355699539185 s]


KERAS MODEL SUMMARY:
Model: "sequential"
_________________________________________________________________
 Layer (type)                Output Shape              Param #   
=================================================================
 c0 (Conv2D)                 (None, 28, 28, 16)        800       
                                                                 
 c1 (Conv2D)                 (None, 28, 28, 16)        12560     
                                                                 
 m2 (MaxPooling2D)           (None, 14, 14, 16)        0         
                                                                 
 dr3 (Dropout)               (None, 14, 14, 16)        0         
                                                                 
 c4 (Conv2D)                 (None, 14, 14, 32)        12832     
                                                                 
 c5 (Conv2D)                 (None, 14, 14, 32)        25632     
                                                                 
 m6 (MaxPooling2D)           (None, 7, 7, 32)          0         
                                                                 
 dr7 (Dropout)               (None, 7, 7, 32)          0         
                                                                 
 c8 (Conv2D)                 (None, 7, 7, 64)          18496     
                                                                 
 c9 (Conv2D)                 (None, 7, 7, 64)          36928     
                                                                 
 m10 (MaxPooling2D)          (None, 3, 3, 64)          0         
                                                                 
 dr11 (Dropout)              (None, 3, 3, 64)          0         
                                                                 
 f12 (Flatten)               (None, 576)               0         
                                                                 
 d13 (Dense)                 (None, 128)               73856     
                                                                 
 d14 (Dense)                 (None, 10)                1290      
                                                                 
=================================================================
Total params: 182,394
Trainable params: 182,394
Non-trainable params: 0
_________________________________________________________________

KERAS CLF ACC AND LOSS... [before fit]

   1/1875 [..............................] - ETA: 1:13:56 - loss: 3.2860 - accuracy: 0.0312
…
