…
------------------------------------------------------------------------------------------------------------------------------------------------------------------------------------------------------------------------------
NO. LAYER   TYPE        INPUT SHAPE             EXTRA INFO  ACTIVATION    OUTPUT SHAPE          DO FORWARD IMPL       DO BACKWARD IMPL      DO BACKWARD OUTPUT IMPL   L1 PENALTIES        L2 PENALTIES        PARAMS          
------------------------------------------------------------------------------------------------------------------------------------------------------------------------------------------------------------------------------
0   c0      Conv2D      (None, 32, 32, 3)       7x7         relu          (None, 32, 32, 32)    numba_cuda_tiles      numba_cuda_direct     numba_cuda_tiles                                                  4736            
1   m1      MaxPool2D   (None, 32, 32, 32)      2x2                       (None, 16, 16, 32)    numba_cuda_direct                           numba_cuda_direct                                                 0               
2   dr2     Dropout     (None, 16, 16, 32)      0.125                     (None, 16, 16, 32)                                                                                                                  0               
3   c3      Conv2D      (None, 16, 16, 32)      5x5         relu          (None, 16, 16, 64)    numba_cuda_direct     numba_cuda_direct     numba_cuda_direct                                                 51264           
4   m4      MaxPool2D   (None, 16, 16, 64)      2x2                       (None, 8, 8, 64)      numba_cuda_direct                           numba_cuda_direct                                                 0               
5   dr5     Dropout     (None, 8, 8, 64)        0.125                     (None, 8, 8, 64)                                                                                                                    0               
6   f6      Flatten     (None, 8, 8, 64)                                  (None, 4096)                                                                                                                        0               
7   d7      Dense       (None, 4096)                        relu          (None, 128)           numpy                 numpy                 numpy                                                             524416          
8   dr8     Dropout     (None, 128)             0.125                     (None, 128)                                                                                                                         0               
9   d9      Dense       (None, 128)                         softmax       (None, 10)            numpy                 numpy                 numpy                                                             1290            
------------------------------------------------------------------------------------------------------------------------------------------------------------------------------------------------------------------------------
…
HMDL FIT DONE. [time: 20148.78688430786 s]
DO PICKLE... [to: ./hmdl_clfs/3250393598_hmdl_clf.bin]
DO PICKLE DONE. [time: 0.31220078468322754 s]

HMDL CLF ACC AND LOSS... [after fit]
[train acc: 0.99874, train loss: 0.015724031254649162]
[test acc: 0.7148, test loss: 1.3629150390625]
HMDL CLF ACC AND LOSS DONE. [time: 72.94443583488464 s]


KERAS MODEL SUMMARY:
Model: "sequential"
_________________________________________________________________
 Layer (type)                Output Shape              Param #   
=================================================================
 c0 (Conv2D)                 (None, 32, 32, 32)        4736      
                                                                 
 m1 (MaxPooling2D)           (None, 16, 16, 32)        0         
                                                                 
 dr2 (Dropout)               (None, 16, 16, 32)        0         
                                                                 
 c3 (Conv2D)                 (None, 16, 16, 64)        51264     
                                                                 
 m4 (MaxPooling2D)           (None, 8, 8, 64)          0         
                                                                 
 dr5 (Dropout)               (None, 8, 8, 64)          0         
                                                                 
 f6 (Flatten)                (None, 4096)              0         
                                                                 
 d7 (Dense)                  (None, 128)               524416    
                                                                 
 dr8 (Dropout)               (None, 128)               0         
                                                                 
 d9 (Dense)                  (None, 10)                1290      
                                                                 
=================================================================
Total params: 581,706
Trainable params: 581,706
Non-trainable params: 0
_________________________________________________________________

KERAS CLF ACC AND LOSS... [before fit]

   1/1563 [..............................] - ETA: 55:18 - loss: 2.8998 - accuracy: 0.1250
…
